lightning_logs/version_37/checkpoints/epoch=2-step=19998.ckpt (torch, 5387 bytes, 6 tensors)

model.sequential.0.weight f4 [10, 3]
000000 f6 df 06 be e9 ac a2 3e 77 57 dd be 49 d9 95 3e
       -0.13171372 0.31772545 -0.43230793 0.29267338
000010 b5 9d 46 3e d0 c8 c8 3e ac 61 00 bf 30 95 f5 be
       0.19396098 0.39215708 -0.50149035 -0.47965384
000020 9a c3 84 3e 80 f5 54 3e 9d 91 09 bf 94 d8 a4 be
       0.25930482 0.20796776 -0.53737813 -0.32196486
000030 40 3c 07 bf ea c6 d3 be 49 60 85 be 5f ff ef 3e
       -0.5282631 -0.41362697 -0.26050022 0.4687452
000040 96 78 ff bd ee b9 a9 3e 41 98 ed 3e be e3 3d 3e
       -0.12474172 0.33149666 0.46405223 0.18543908
000050 04 c4 0e bf 41 86 9e 3e 1b 7b 75 3e 48 2d e5 3e
       -0.55767846 0.30961803 0.23972742 0.4476111
000060 37 37 04 bf e8 35 cd 3e d3 52 ff 3e ed 51 00 bf
       -0.5164675 0.4008019 0.49867877 -0.5012501
000070 4b 04 cf 3d 4c 26 00 3f
       0.10108241 0.50058436

model.sequential.0.bias f4 [10]
000000 8f a2 c7 be f1 0c 70 3e d4 9e 82 3e 0c f3 1a 3e
       -0.3899121 0.23442437 0.255118 0.15131778
000010 a4 f4 12 3f ec fa f1 3e 99 9a d7 3e e1 49 7d bd
       0.5740454 0.4726175 0.42110136 -0.061838035
000020 57 8f 04 3f 8b 49 04 bf
       0.5178122 -0.5167472

model.sequential.3.weight f4 [1, 10]
000000 07 76 4d be 00 38 03 be 5c 62 c0 bd db 8d 95 3e
       -0.20064555 -0.12814331 -0.093937606 0.2920979
000010 bc bb 18 3e e4 18 47 3e ad c3 0b 3e 8b 05 83 be
       0.14915365 0.19443089 0.13648863 -0.25590166
000020 97 de a9 bd d3 a4 ac bd
       -0.08294409 -0.08429875

square_avg f4 [10, 3]
000000 00 00 00 00 00 00 00 00 00 00 00 00 ab 2e 01 2e
       0.0 0.0 0.0 2.9372654e-11
000010 02 7d fd 34 25 90 38 1d 00 00 00 00 00 00 00 00
       4.7215877e-07 2.4426718e-21 0.0 0.0
000020 00 00 00 00 00 00 00 00 00 00 00 00 00 00 00 00
       0.0 0.0 0.0 0.0
000030 00 00 00 00 00 00 00 00 00 00 00 00 00 00 00 00
       0.0 0.0 0.0 0.0
000040 00 00 00 00 00 00 00 00 61 c0 ce 2e 6c 16 76 35
       0.0 0.0 9.401969e-11 9.167477e-07
000050 7b 4f cd 1d 00 00 00 00 00 00 00 00 00 00 00 00
       5.434523e-21 0.0 0.0 0.0
000060 a1 68 40 2d b1 be 3f 33 b9 3e 80 1c e4 d9 b4 2d
       1.0937169e-11 4.4644086e-08 8.486543e-22 2.0560394e-11
000070 03 db 72 34 0d c3 91 1a
       2.2617682e-07 6.0285716e-23

square_avg f4 [10]
000000 00 00 00 00 4b d7 b1 25 00 00 00 00 00 00 00 00
       0.0 3.0850494e-16 0.0 0.0
000010 00 00 00 00 00 00 00 00 38 1c 3d 26 00 00 00 00
       0.0 0.0 6.561079e-16 0.0
000020 44 9e 40 24 2d f0 35 25
       4.176742e-17 1.5780622e-16

square_avg f4 [1, 10]
000000 00 00 00 00 39 68 9d 35 00 00 00 00 00 00 00 00
       0.0 1.1727744e-06 0.0 0.0
000010 00 00 00 00 00 00 00 00 a6 82 e4 35 00 00 00 00
       0.0 0.0 1.7025347e-06 0.0
000020 3a d4 a4 35 27 bf a4 34
       1.2280718e-06 3.0686462e-07
