lightning_logs/version_33/checkpoints/epoch=2-step=19998.ckpt (torch, 5387 bytes, 6 tensors)

model.sequential.0.weight f4 [10, 3]
000000 a8 58 e3 bd 20 0d 49 bd f1 88 e6 be 00 b2 68 bb
       -0.11100894 -0.049084783 -0.45026353 -0.0035506487
000010 26 5d f5 be a0 5f fe bd 4a 3b 70 3e b9 5f 00 bf
       -0.4792263 -0.12420583 0.23460117 -0.5014606
000020 ea 72 fa be d8 5b 10 be e4 11 22 be f0 2a c8 3d
       -0.48915797 -0.14097536 -0.15827137 0.09773815
000030 ae 8c 48 3e 73 19 c9 3e b6 70 98 be 46 1f 10 be
       0.19584915 0.3927723 -0.29773492 -0.1407443
000040 ba 41 64 3e 0e 7d cc 3e e0 80 2c bd c4 0a ab be
       0.22290698 0.3993916 -0.042115092 -0.3340665
000050 28 f3 29 3e 5e 47 6a 3e cf e0 eb be 8d bb de be
       0.16596663 0.22878787 -0.46069953 -0.43502465
000060 8d e9 1e 3e cf d2 0f be cf 32 25 bf 1e 7b 6e be
       0.1551878 -0.14045261 -0.6453065 -0.23289153
000070 ad 13 ab 3e f6 3e c4 bd
       0.3341345 -0.09582321

model.sequential.0.bias f4 [10]
000000 b4 08 cc 3e ac af e9 3e 04 21 83 bc 80 ff 3a bd
       0.3985039 0.4564184 -0.016006954 -0.04565382
000010 b6 8c aa bd 78 4b 04 be 58 39 d7 3d 16 7f 0a bf
       -0.0832762 -0.12919414 0.10508984 -0.5410017
000020 20 b2 73 be e2 ae c2 be
       -0.23798418 -0.3802405

model.sequential.3.weight f4 [1, 10]
000000 92 be 46 3e f4 37 4e be d8 6b 41 3e 9e f2 a6 bd
       0.19408634 -0.20138532 0.18888795 -0.08151744
000010 14 f4 8f be 50 b7 54 3d f8 18 41 3d 89 a8 f3 3d
       -0.28115904 0.051932633 0.047142953 0.1189738
000020 b8 22 03 3d 47 2c cf be
       0.032015532 -0.40463468

square_avg f4 [10, 3]
000000 00 00 00 00 00 00 00 00 00 00 00 00 00 00 00 00
       0.0 0.0 0.0 0.0
000010 00 00 00 00 00 00 00 00 56 99 b5 37 d4 36 06 37
       0.0 0.0 2.1648284e-05 7.999788e-06
000020 21 28 6c 2d 00 00 00 00 00 00 00 00 00 00 00 00
       1.3423957e-11 0.0 0.0 0.0
000030 3f d3 0e 37 89 1d 53 36 e7 bb b9 2c 00 00 00 00
       8.513044e-06 3.1458642e-06 5.2788776e-12 0.0
000040 00 00 00 00 00 00 00 00 00 00 00 00 00 00 00 00
       0.0 0.0 0.0 0.0
000050 00 00 00 00 a3 ac 50 37 81 39 9a 36 d8 ae 07 2d
       0.0 1.2437961e-05 4.596252e-06 7.712685e-12
000060 00 00 00 00 00 00 00 00 00 00 00 00 00 00 00 00
       0.0 0.0 0.0 0.0
000070 00 00 00 00 00 00 00 00
       0.0 0.0

square_avg f4 [10]
000000 00 00 00 00 00 00 00 00 21 28 6c 2d 00 00 00 00
       0.0 0.0 1.3423957e-11 0.0
000010 e7 bb b9 2c 00 00 00 00 00 00 00 00 d8 ae 07 2d
       5.2788776e-12 0.0 0.0 7.712685e-12
000020 00 00 00 00 00 00 00 00
       0.0 0.0

square_avg f4 [1, 10]
000000 00 00 00 00 00 00 00 00 5f fe 0d 36 00 00 00 00
       0.0 0.0 2.11587e-06 0.0
000010 ce 9b a2 37 00 00 00 00 00 00 00 00 08 7b 4e 36
       1.9384457e-05 0.0 0.0 3.0768006e-06
000020 00 00 00 00 00 00 00 00
       0.0 0.0
