lightning_logs/version_41/checkpoints/epoch=4-step=33330.ckpt (torch, 7410 bytes, 9 tensors)

model.sequential.0.weight f4 [10, 3]
00000000: 68c6 133e 5d4f aabe b261 f8be 7434 debe
00000010: a00a f8be 80a7 f23d 7050 e63d 723e 7bbe
00000020: 8292 10bf 3621 a03e 63ba a7be b466 c5bd
00000030: a9db f7be 5dc4 a6be b4a0 763e f7b5 09bf
00000040: 9390 a8be 6c9f dd3e 8c99 97be be08 76be
00000050: cefe 25be 78b7 7c3e 24e8 c1be 401c 6d3d
00000060: 566b 983e 1212 2c3d 4b8e 233e be90 eebe
00000070: 05f4 6a3e 64f6 423e
0.14431155 -0.33263674 -0.48512036 -0.43399394 -0.48445606 0.11848354 0.11245811 -0.2453554
-0.56473553 0.31275338 -0.3275939 -0.0963873 -0.48409775 -0.32571688 0.24084741 -0.5379328
-0.329228 0.43285692 -0.29609334 -0.24026772 -0.16210482 0.24679363 -0.37872422 0.05788827
0.2976939 0.04200942 0.15972249 -0.46594805 0.22944649 0.19039303

model.sequential.0.bias f4 [10]
00000000: 0850 94bd f66c f4be dc77 6c3e b8e4 c03e
00000010: 40d0 cebd 3854 8b3e d822 5b3e a676 6cbe
00000020: ce4f 7a3c 54a1 0c3f
-0.07241827 -0.4773938 0.23092598 0.376745 -0.10098314 0.2721269 0.2140001 -0.23092136
0.015277816 0.5493367

model.sequential.3.weight f4 [1, 10]
00000000: 00ae c33a cbe5 80be 70ec bcbc c218 213e
00000010: 3867 d3bd e893 29be 7560 853e 984d 2b3e
00000020: 54d4 dfbd b23e a3bc
0.0014929175 -0.25175318 -0.023061961 0.157321 -0.10322422 -0.16560328 0.26050153 0.16728818
-0.1092917 -0.019927356

exp_avg f4 [10, 3]
00000000: 0000 0000 0000 0000 0000 0000 0000 0000
00000010: 0000 0000 0000 0000 0000 0000 0000 0000
00000020: 0000 0000 0000 0000 0000 0000 0000 0000
00000030: 0000 0000 0000 0000 0000 0000 0000 0000
00000040: 0000 0000 0000 0000 0000 0000 0000 0000
00000050: 0000 0000 0000 0000 0000 0000 0000 0000
00000060: 0000 0000 0000 0000 0000 0000 81fd a9a4
00000070: 3b9d f4a5 4105 ba9f
0.0 0.0 0.0 0.0 0.0 0.0 0.0 0.0
0.0 0.0 0.0 0.0 0.0 0.0 0.0 0.0
0.0 0.0 0.0 0.0 0.0 0.0 0.0 0.0
0.0 0.0 0.0 -7.372152e-17 -4.2433796e-16 -7.8782756e-20

exp_avg_sq f4 [10, 3]
00000000: 0000 0000 0000 0000 0000 0000 0000 0000
00000010: 0000 0000 0000 0000 0000 0000 0000 0000
00000020: 0000 0000 58b2 6a07 f974 ad06 0000 0000
00000030: 0000 0000 0000 0000 0000 0000 0000 0000
00000040: 0000 0000 0000 0000 0000 0000 0000 0000
00000050: 0000 0000 58b0 8407 df21 c406 0000 0000
00000060: b28a a12a 2fc1 fd2f a322 dd23 e8e9 8c27
00000070: 8ae4 e829 d84e ab1d
0.0 0.0 0.0 0.0 0.0 0.0 0.0 0.0
0.0 1.7656614e-34 6.5247243e-35 0.0 0.0 0.0 0.0 0.0
0.0 0.0 0.0 0.0 0.0 1.9964798e-34 7.3776775e-35 0.0
2.8695584e-13 4.6157697e-10 2.3975537e-17 3.9111408e-15 1.0342515e-13 4.5344846e-21

exp_avg f4 [10]
00000000: 0000 0000 0000 0000 0000 0000 0000 0000
00000010: 0000 0000 0000 0000 0000 0000 0000 0000
00000020: 0000 0000 4105 ba9f
0.0 0.0 0.0 0.0 0.0 0.0 0.0 0.0
0.0 -7.8782756e-20

exp_avg_sq f4 [10]
00000000: 0000 0000 0000 0000 0000 0000 0000 0000
00000010: 0000 0000 0000 0000 0000 0000 0000 0000
00000020: a322 dd23 d84e ab1d
0.0 0.0 0.0 0.0 0.0 0.0 0.0 0.0
2.3975537e-17 4.5344846e-21

exp_avg f4 [1, 10]
00000000: 0000 0000 0000 0000 0000 0000 0000 0000
00000010: 0000 0000 0000 0000 0000 0000 0000 0000
00000020: 0000 0000 8610 6427
0.0 0.0 0.0 0.0 0.0 0.0 0.0 0.0
0.0 3.1650314e-15

exp_avg_sq f4 [1, 10]
00000000: 0000 0000 0000 0000 0000 0000 d5bf f506
00000010: 0000 0000 0000 0000 0000 0000 45e5 2304
00000020: 6190 b72d c818 232f
0.0 0.0 0.0 9.244063e-35 0.0 0.0 0.0 1.9265833e-36
2.0868808e-11 1.4833568e-10
