lightning_logs/version_43/checkpoints/epoch=4-step=33330.ckpt (torch, 7410 bytes, 9 tensors)

model.sequential.0.weight f4 [10, 3]
-0.22264731 -0.515614 -0.27486268 -0.72307867 0.30727032 -0.3538206 -0.4062082 -0.06241083
-0.38902348 -0.49471396 0.1431084 -0.5731087 0.3624844 0.51543826 0.059830323 0.25636464
-0.3234077 0.45022738 0.71548975 0.2939683 0.6554188 -0.57340455 -0.06339353 0.11471546
-0.46674463 0.29868776 -0.2224562 -0.20881751 -0.45807797 0.23603106
00000000: a8fd 63be 47ff 03bf cdba 8cbe af1b 39bf
00000010: 8952 9d3e f927 b5be 85fa cfbe 80a2 7fbd
00000020: 162e c7be 264b fdbe 028b 123e 40b7 12bf
00000030: 8e97 b93e c3f3 033f a410 753d 3a42 833e
00000040: b295 a5be 3484 e63e 562a 373f 0383 963e
00000050: 87c9 273f a4ca 12bf 78d4 81bd f0ef ea3d
00000060: 27f9 eebe 9aed 983e 8fcb 63be 42d4 55be
00000070: 3289 eabe 20b2 713e

model.sequential.0.bias f4 [10]
-0.42009565 -0.26498693 0.25647712 0.2579248 0.22345184 -0.21537629 -0.097888194 0.32405674
0.1348763 0.4860158
00000000: c716 d7be 5eac 87be f850 833e b80e 843e
00000010: 8fd0 643e 9a8b 5cbe 9b79 c8bd c4ea a53e
00000020: 031d 0a3e 10d7 f83e

model.sequential.3.weight f4 [1, 10]
0.11908695 0.08616759 -0.25481907 0.106947124 -0.23822622 -0.084649295 -0.17429884 -0.059302777
-0.10217806 0.28178957
00000000: dce3 f33d a278 b03d a577 82be 1807 db3d
00000010: 93f1 73be 9c5c adbd 657b 32be 78e7 72bd
00000020: bb42 d1bd b946 903e

exp_avg f4 [10, 3]
0.0 0.0 0.0 0.0 0.0 0.0 0.0 0.0
0.0 0.0 0.0 0.0 0.0 0.0 0.0 0.0
0.0 0.0 0.0 0.0 0.0 0.0 0.0 0.0
0.0 0.0 0.0 0.0 0.0 0.0
00000000: 0000 0000 0000 0000 0000 0000 0000 0000
00000010: 0000 0000 0000 0000 0000 0000 0000 0000
00000020: 0000 0000 0000 0000 0000 0000 0000 0000
00000030: 0000 0000 0000 0000 0000 0000 0000 0000
00000040: 0000 0000 0000 0000 0000 0000 0000 0000
00000050: 0000 0000 0000 0000 0000 0000 0000 0000
00000060: 0000 0000 0000 0000 0000 0000 0000 0000
00000070: 0000 0000 0000 0000

exp_avg_sq f4 [10, 3]
0.0 0.0 0.0 0.0006530917 0.16646706 3.5671205e-10 0.0 0.0
0.0 0.000985655 0.5157606 4.565975e-10 6.2446375e-06 0.062923945 4.2139943e-18 0.0
0.0 0.0 0.0010937558 0.37115708 5.320997e-10 0.0 0.0 0.0
8.917109e-05 0.01708065 5.082648e-11 0.0 0.0 0.0
00000000: 0000 0000 0000 0000 0000 0000 3e34 2b3a
00000010: 5776 2a3e c21a c42f 0000 0000 0000 0000
00000020: 0000 0000 1831 813a e308 043f 6304 fb2f
00000030: 0789 d136 45de 803d 0d78 9b22 0000 0000
00000040: 0000 0000 0000 0000 5b5c 8f3a 4d08 be3e
00000050: 3043 1230 0000 0000 0000 0000 0000 0000
00000060: 5d01 bb38 b8ec 8b3c 8789 5f2e 0000 0000
00000070: 0000 0000 0000 0000

exp_avg f4 [10]
0.0 0.0 0.0 0.0 0.0 0.0 0.0 0.0
0.0 0.0
00000000: 0000 0000 0000 0000 0000 0000 0000 0000
00000010: 0000 0000 0000 0000 0000 0000 0000 0000
00000020: 0000 0000 0000 0000

exp_avg_sq f4 [10]
0.0 3.7956316e-10 0.0 7.1479606e-10 3.8295856e-11 0.0 6.5743566e-10 0.0
5.1309648e-11 0.0
00000000: 0000 0000 c4aa d02f 0000 0000 4d7b 4430
00000010: 4d6d 282e 0000 0000 ecb6 3430 0000 0000
00000020: 87a9 612e 0000 0000

exp_avg f4 [1, 10]
0.0 0.0 0.0 0.0 0.0 0.0 0.0 0.0
0.0 0.0
00000000: 0000 0000 0000 0000 0000 0000 0000 0000
00000010: 0000 0000 0000 0000 0000 0000 0000 0000
00000020: 0000 0000 0000 0000

exp_avg_sq f4 [1, 10]
0.0 1.0130891 0.0 0.6716076 0.35006553 0.0 1.6682075 0.0
0.20941305 0.0
00000000: 0000 0000 e7ac 813f 0000 0000 7aee 2b3f
00000010: ca3b b33e 0000 0000 d387 d53f 0000 0000
00000020: 6070 563e 0000 0000
