lightning_logs/version_31/checkpoints/epoch=3-step=26664.ckpt (torch, 5387 bytes, 6 tensors)

model.sequential.0.weight f4 [10, 3]
0.029562712 -0.017102242 0.086854696 0.3572262 0.47287568 -0.41208768 -0.03600037 -0.23132902
-0.53211236 -0.37355766 0.5915388 0.37661314 0.33990878 0.3508507 -0.43875048 -0.0025669849
0.46866027 -0.3719968 0.4844338 0.12182605 0.37626693 -0.30093002 0.20747633 -0.55142003
-0.007396116 0.22228943 0.20279169 0.5131264 0.5973342 0.5452395
00000000: 802d f23c 001a 8cbc e0e0 b13d 5ae6 b63e
00000010: c31c f23e 28fd d2be 2075 13bd 84e1 6cbe
00000020: 8438 08bf f342 bfbe 166f 173f 70d3 c03e
00000030: 8608 ae3e b4a2 b33e e7a3 e0be dc3a 28bb
00000040: 3df4 ef3e 5d76 bebe b507 f83e f07f f93d
00000050: 0fa6 c03e 8013 9abe ad74 543e dd29 0dbf
00000060: 1e5b f2bb d79f 633e a0a8 4f3e 405c 033f
00000070: e5ea 183f d194 0b3f

model.sequential.0.bias f4 [10]
0.38762844 0.33726975 -0.074495375 -0.41768557 -0.19407132 -0.11233108 -0.3385672 0.2573757
0.2227424 0.122199975
00000000: 3c77 c63e 9fae ac3e 0891 98bd e2da d5be
00000010: a2ba 46be d60d e6bd ae58 adbe bfc6 833e
00000020: 9516 643e fb43 fa3d

model.sequential.3.weight f4 [1, 10]
0.07638821 0.18911974 0.115180075 -0.32710657 -0.25953826 0.06986354 -0.026847813 0.095186554
-0.34552944 -0.32183388
00000000: 6c71 9c3d 9ba8 413e 88e3 eb3d 837a a7be
00000010: 33e2 84be 9e14 8f3d f2ef dbbc 2bf1 c23d
00000020: 3ce9 b0be 69c7 a4be

square_avg f4 [10, 3]
0.0 0.0 0.0 0.0 0.0 0.0 0.0 0.0
0.0 0.0 0.0 0.0 0.0 0.0 0.0 0.0
0.0 0.0 0.0 0.0 0.0 0.0 0.0 0.0
0.0 0.0 0.0 0.0 0.0 0.0
00000000: 0000 0000 0000 0000 0000 0000 0000 0000
00000010: 0000 0000 0000 0000 0000 0000 0000 0000
00000020: 0000 0000 0000 0000 0000 0000 0000 0000
00000030: 0000 0000 0000 0000 0000 0000 0000 0000
00000040: 0000 0000 0000 0000 0000 0000 0000 0000
00000050: 0000 0000 0000 0000 0000 0000 0000 0000
00000060: 0000 0000 0000 0000 0000 0000 0000 0000
00000070: 0000 0000 0000 0000

square_avg f4 [10]
0.0 0.0 0.0 0.0 0.0 0.0 0.0 0.0
0.0 0.0
00000000: 0000 0000 0000 0000 0000 0000 0000 0000
00000010: 0000 0000 0000 0000 0000 0000 0000 0000
00000020: 0000 0000 0000 0000

square_avg f4 [1, 10]
0.0 0.0 0.0 0.0 0.0 0.0 0.0 0.0
0.0 0.0
00000000: 0000 0000 0000 0000 0000 0000 0000 0000
00000010: 0000 0000 0000 0000 0000 0000 0000 0000
00000020: 0000 0000 0000 0000
