lightning_logs/version_8/checkpoints/epoch=1-step=13332.ckpt (torch, 7282 bytes, 9 tensors)

model.fc1.weight f4 [10, 3]
000000 80 a4 43 be 98 8c aa bd fd 21 0c bf 05 8d f5 3e
       -0.1910572 -0.083275974 -0.5473936 0.47959152
000010 a6 f9 a5 3e 30 5a 96 be 4d 24 04 3e 04 82 b2 3e
       0.3241703 -0.29365683 0.12904473 0.3486482
000020 28 5f 91 be 36 4a b3 be 58 f5 c3 be 60 6f 10 bf
       -0.2839291 -0.35017556 -0.3827312 -0.56419945
000030 b8 a9 1c 3f e3 f8 79 3d 46 cb 02 bd 50 bb 52 3d
       0.6119647 0.061028372 -0.031932138 0.051448166
000040 df c4 db be 30 84 e0 3e 46 65 13 bf 1a 9b db 3e
       -0.42923638 0.4385085 -0.57576406 0.4289177
000050 1c ba c1 be 48 af 48 3e cd e0 73 bd e9 53 16 bf
       -0.37837303 0.19598114 -0.05954056 -0.58721787
000060 81 0d fe 3e f7 7b b9 3e d1 0d 28 3e 52 a6 88 3e
       0.49619678 0.3622739 0.1641152 0.26689392
000070 82 6e 09 bf a8 e8 15 3e
       -0.53684247 0.14639533

model.fc1.bias f4 [10]
000000 f4 cd 65 3e c8 34 ac 3e 3a 09 16 bf 80 01 05 bc
       0.22441846 0.3363402 -0.5860783 -0.008118033
000010 6f 17 fb 3e 52 66 da be f4 c3 c3 be 49 44 f3 3e
       0.49041316 -0.4265619 -0.38235438 0.47513035
000020 d9 79 0a 3e 58 38 f5 bd
       0.13523044 -0.11973637

model.fc2.weight f4 [1, 10]
000000 9c da 32 be f8 c0 28 3b 82 ef 27 bd c5 4f 84 3e
       -0.17466205 0.0025749784 -0.040999897 0.2584211
000010 86 98 f0 bd 1a 29 08 3e db 78 0f 3e c5 ed 4b 3d
       -0.117478415 0.13296929 0.14010946 0.0497873
000020 af 55 6a be 08 b0 ed 3d
       -0.22884248 0.11605841

exp_avg f4 [10, 3]
000000 00 00 00 00 00 00 00 00 00 00 00 00 00 00 00 00
       0.0 0.0 0.0 0.0
000010 00 00 00 00 00 00 00 00 00 00 00 00 00 00 00 00
       0.0 0.0 0.0 0.0
000020 00 00 00 00 00 00 00 00 00 00 00 00 00 00 00 00
       0.0 0.0 0.0 0.0
000030 00 00 00 00 00 00 00 00 00 00 00 00 00 00 00 00
       0.0 0.0 0.0 0.0
000040 00 00 00 00 00 00 00 00 00 00 00 00 00 00 00 00
       0.0 0.0 0.0 0.0
000050 00 00 00 00 00 00 00 00 00 00 00 00 00 00 00 00
       0.0 0.0 0.0 0.0
000060 00 00 00 00 00 00 00 00 00 00 00 00 00 00 00 00
       0.0 0.0 0.0 0.0
000070 00 00 00 00 00 00 00 00
       0.0 0.0

exp_avg_sq f4 [10, 3]
000000 00 00 00 00 00 00 00 00 00 00 00 00 2b 48 d7 3d
       0.0 0.0 0.0 0.10511812
000010 63 b1 61 41 62 ed 06 35 8d 70 50 3e ae e1 95 41
       14.105807 5.026433e-07 0.20355435 18.735195
000020 b2 f7 39 35 00 00 00 00 00 00 00 00 00 00 00 00
       6.9278315e-07 0.0 0.0 0.0
000030 ad 31 2e 3f 27 1d cc 41 4c 6a 97 35 00 00 00 00
       0.6804455 25.514235 1.1281313e-06 0.0
000040 00 00 00 00 00 00 00 00 bd ae 96 39 0e fa b8 3c
       0.0 0.0 0.0002874042 0.022580173
000050 6f 74 0a 2f 69 b0 1d 3f 9c 29 b9 41 b7 10 89 35
       1.2592392e-10 0.61597306 23.145317 1.021216e-06
000060 9a 1e 15 3a 6c 0f 37 3d 03 05 89 2f 00 00 00 00
       0.0005688459 0.04469244 2.4923716e-10 0.0
000070 00 00 00 00 00 00 00 00
       0.0 0.0

exp_avg f4 [10]
000000 00 00 00 00 00 00 00 00 00 00 00 00 00 00 00 00
       0.0 0.0 0.0 0.0
000010 00 00 00 00 00 00 00 00 00 00 00 00 00 00 00 00
       0.0 0.0 0.0 0.0
000020 00 00 00 00 00 00 00 00
       0.0 0.0

exp_avg_sq f4 [10]
000000 00 00 00 00 62 ed 06 35 91 00 3a 35 00 00 00 00
       0.0 5.026433e-07 6.9291224e-07 0.0
000010 4c 6a 97 35 00 00 00 00 6f 74 0a 2f b3 11 89 35
       1.1281313e-06 0.0 1.2592392e-10 1.0212447e-06
000020 03 05 89 2f 00 00 00 00
       2.4923716e-10 0.0

exp_avg f4 [1, 10]
000000 00 00 00 00 00 00 00 00 00 00 00 00 00 00 00 00
       0.0 0.0 0.0 0.0
000010 00 00 00 00 00 00 00 00 00 00 00 00 00 00 00 00
       0.0 0.0 0.0 0.0
000020 00 00 00 00 00 00 00 00
       0.0 0.0

exp_avg_sq f4 [1, 10]
000000 00 00 00 00 c0 7c 27 45 14 66 80 46 00 00 00 00
       0.0 2679.7969 16435.04 0.0
000010 34 ee 55 42 00 00 00 00 7e 06 0d 3e f9 26 9c 3e
       53.48262 0.0 0.13772008 0.30498484
000020 ee 49 20 3e 00 00 00 00
       0.15653202 0.0
