lightning_logs/version_35/checkpoints/epoch=0-step=6666.ckpt (torch, 5387 bytes, 6 tensors)

model.sequential.0.weight f4 [10, 3]
00000000: ecf7 ebbe 3068 313e fec0 a1be 737c 01bf
00000010: a6c8 63be 9c5e bebd e34e 06bf ee61 c5be
00000020: 800e 1b3d 6f5f 0bbf 8431 a6bd 33df bebe
00000030: c60f 00bf 85f6 013e 855c 0bbf b004 e0be
00000040: be93 a83e 4812 dd3d da9a 063f e006 1ebe
00000050: e7c7 8ebe 8aa6 913d 9aeb 483e f151 0a3f
00000060: e738 13bf a060 28bd c2c2 823e a3c8 a2be
00000070: 4735 96be 06db 8e3e
-0.46087587 0.173249 -0.31592554 -0.5058052 -0.2224451 -0.09295389 -0.5246412 -0.38551277
0.037855625 -0.54442495 -0.08114913 -0.37279662 -0.5002407 0.12691696 -0.5443805 -0.43753576
0.32925218 0.107945025 0.52580035 -0.1543231 -0.27886888 0.07111843 0.19621125 0.5403128
-0.575087 -0.041107774 0.25539213 -0.317937 -0.29337522 0.27901477

model.sequential.0.bias f4 [10]
00000000: f20a e8be 0017 0c3e 24da e4be e2ee 923e
00000010: f5f9 17bf 04bd b53e f4e9 0bbf a742 c5be
00000020: 8066 0b3c 98ee e83e
-0.4532085 0.13680649 -0.44697678 0.28697878 -0.5936578 0.3549577 -0.5465386 -0.38527414
0.008508325 0.45494533

model.sequential.3.weight f4 [1, 10]
00000000: 95db bdbe 1b71 10be 9733 8e3e 9836 59bd
00000010: 8006 fe3c 7cc1 9bbe 2eab cbbd 15dc 8bbe
00000020: b77f 883e a665 063e
-0.3708159 -0.14105646 0.27773735 -0.05303058 0.031008959 -0.30421054 -0.09944759 -0.27316347
0.2665994 0.13124713

square_avg f4 [10, 3]
00000000: 1587 271a 87a7 0c1e c77a 2310 0000 0000
00000010: 0000 0000 0000 0000 0000 0000 0000 0000
00000020: 0000 0000 0000 0000 0000 0000 0000 0000
00000030: dcd1 1c19 e5a9 031d d007 190f 0000 0000
00000040: 0000 0000 0000 0000 0000 0000 0000 0000
00000050: 0000 0000 c3fc 8819 da06 661d 64ad 850f
00000060: 0000 0000 0000 0000 0000 0000 0000 0000
00000070: 0000 0000 0000 0000
3.464391e-23 7.446182e-21 3.2240666e-29 0.0 0.0 0.0 0.0 0.0
0.0 0.0 0.0 0.0 8.107392e-24 1.742554e-21 7.544987e-30 0.0
0.0 0.0 0.0 0.0 0.0 1.416416e-23 3.0443789e-21 1.31816e-29
0.0 0.0 0.0 0.0 0.0 0.0

square_avg f4 [10]
00000000: c77a 2310 0000 0000 0000 0000 0000 0000
00000010: d007 190f 0000 0000 0000 0000 64ad 850f
00000020: 0000 0000 0000 0000
3.2240666e-29 0.0 0.0 0.0 7.544987e-30 0.0 0.0 1.31816e-29
0.0 0.0

square_avg f4 [1, 10]
00000000: 1abd 151b 0000 0000 0000 0000 0000 0000
00000010: 2ebe 981d 0000 0000 0000 0000 0a41 881c
00000020: 0000 0000 0000 0000
1.2386093e-22 0.0 0.0 0.0 4.0430706e-21 0.0 0.0 9.016537e-22
0.0 0.0
