lightning_logs/version_29/checkpoints/epoch=3-step=26664.ckpt (torch, 7410 bytes, 9 tensors)

model.sequential.0.weight f4 [10, 3]
00000000: df0f 9bbe b09d 81bd 360b 3abe 90b3 edbe
00000010: 0f7a 6ebd 1c6c de3e c8d1 2c3e 920f 87be
00000020: 2a00 3fbe 951a 283c ab1d ff3e 532b 72be
00000030: bffd 37bf 553d 6abe 02a3 e83c b941 05bf
00000040: a09b 053f e8ac 543e 7d1a cfbe 60b3 febd
00000050: d23a 003f 10cc e2be d6cb 2cbe 74e7 413e
00000060: a17c 01bf 9a0c a23e 28e0 993e bf16 7e3f
00000070: bad1 883e b7cb 9a3f
-0.30285546 -0.06328905 -0.18168339 -0.46426058 -0.058221873 0.43441856 0.168769 -0.26379067
-0.18652406 0.010260244 0.49827322 -0.2364934 -0.7187156 -0.22874959 0.02839804 -0.5205341
0.5219059 0.20769083 -0.40449896 -0.12436557 0.5008975 -0.44296312 -0.16874632 0.18935949
-0.50580794 0.3165024 0.3005383 0.9925346 0.2672251 1.2093419

model.sequential.0.bias f4 [10]
00000000: e838 afbe 3b97 043f c629 5fbf 3272 eabe
00000010: f457 173d b027 773d e06c 083d 5db1 a3be
00000020: 26ff 77be d554 ee3e
-0.34223104 0.5179326 -0.87173116 -0.4579025 0.036949113 0.060340583 0.033306956 -0.31971255
-0.24218425 0.46549097

model.sequential.3.weight f4 [1, 10]
00000000: 62b9 9dbe f023 2cbd 8b01 86be b319 77bd
00000010: 10b6 5cbe 8da0 993e 1832 ac3d c414 edbd
00000020: 1344 05be 2b4e 54bf
-0.30805498 -0.04202646 -0.26173052 -0.060327243 -0.21553826 0.30005303 0.08407992 -0.11576226
-0.1301425 -0.82931775

exp_avg f4 [10, 3]
00000000: 0000 0000 0000 0000 0000 0000 0000 0000
00000010: 0000 0000 0000 0000 0000 0000 0000 0000
00000020: 0000 0000 0000 0000 0000 0000 0000 0000
00000030: 0000 0000 0000 0000 0000 0000 0000 0000
00000040: 0000 0000 0000 0000 0000 0000 0000 0000
00000050: 0000 0000 0000 0000 0000 0000 0000 0000
00000060: 0000 0000 0000 0000 0000 0000 0000 0000
00000070: 0000 0000 0000 0000
0.0 0.0 0.0 0.0 0.0 0.0 0.0 0.0
0.0 0.0 0.0 0.0 0.0 0.0 0.0 0.0
0.0 0.0 0.0 0.0 0.0 0.0 0.0 0.0
0.0 0.0 0.0 0.0 0.0 0.0

exp_avg_sq f4 [10, 3]
00000000: 0000 0000 0000 0000 0000 0000 0000 0000
00000010: 2404 ea2f 0000 0000 d5a8 5335 506e 9c34
00000020: 929f 092b 4253 771a ac44 2720 5967 8b0f
00000030: 323e 9a38 b195 183c 7a57 292e 0000 0000
00000040: 0000 0000 0000 0000 0000 0000 0000 0000
00000050: 0000 0000 0000 0000 0000 0000 0000 0000
00000060: 0000 0000 0000 0000 0000 0000 3e4c fb3a
00000070: 0643 773e ef15 8a30
0.0 0.0 0.0 0.0 4.2567294e-10 0.0 7.884931e-07 2.9137527e-07
4.8893626e-13 5.1145658e-23 1.4168172e-19 1.3746266e-29 7.354877e-05 0.009313033 3.8503846e-11 0.0
0.0 0.0 0.0 0.0 0.0 0.0 0.0 0.0
0.0 0.0 0.0 0.0019172502 0.24146661 1.0047055e-09

exp_avg f4 [10]
00000000: 0000 0000 0000 0000 0000 0000 0000 0000
00000010: 0000 0000 0000 0000 0000 0000 0000 0000
00000020: 0000 0000 0000 0000
0.0 0.0 0.0 0.0 0.0 0.0 0.0 0.0
0.0 0.0

exp_avg_sq f4 [10]
00000000: 0000 0000 2044 0a21 929f 092b 79a1 0611
00000010: 7a57 292e 0000 0000 0000 0000 0000 0000
00000020: 0000 0000 ef15 8a30
0.0 4.684638e-19 4.8893626e-13 1.0620494e-28 3.8503846e-11 0.0 0.0 0.0
0.0 1.0047055e-09

exp_avg f4 [1, 10]
00000000: 0000 0000 0000 0000 0000 0000 0000 0000
00000010: 0000 0000 0000 0000 0000 0000 0000 0000
00000020: 0000 0000 0000 0000
0.0 0.0 0.0 0.0 0.0 0.0 0.0 0.0
0.0 0.0

exp_avg_sq f4 [1, 10]
00000000: 0000 0000 ee9e eb29 5350 8e38 e0e2 cf2a
00000010: 4358 263b 0000 0000 0000 0000 0000 0000
00000020: 0000 0000 d155 b938
0.0 1.0463666e-13 6.786049e-05 3.6928013e-13 0.0025382198 0.0 0.0 0.0
0.0 8.837472e-05
