lightning_logs/version_34/checkpoints/epoch=1-step=13332.ckpt (torch, 5387 bytes, 6 tensors)

model.sequential.0.weight f4 [10, 3]
0	0x3ef90968	0.4863999
1	0xbe4a9b12	-0.19785717
2	0xbea3113d	-0.3184909
3	0x3efe32ce	0.49648136
4	0x3e767a81	0.24070169
5	0x3f0de314	0.5542462
6	0xbe76f1ec	-0.24115723
7	0xbebdcc0e	-0.37069744
8	0xbd8a9818	-0.06767291
9	0xbf0b292b	-0.5435969
10	0x3e67d66c	0.22640389
11	0x3eda0898	0.42584682
12	0x3e0dec58	0.13859689
13	0xbd69a940	-0.057046175
14	0x3e928fe0	0.28625393
15	0xbebbae4c	-0.36656415
16	0x3f107e9f	0.5644321
17	0xbf12f736	-0.57408464
18	0xbf0d95fe	-0.55306995
19	0xbe0bb400	-0.13642883
20	0x3ef17644	0.47160542
21	0x3d6cc7b0	0.057807624
22	0x3e630ce8	0.22172892
23	0xbed8ade4	-0.42320168
24	0x3e579acc	0.21055144
25	0xbd842080	-0.064515114
26	0x3e6cf838	0.23141563
27	0x3ed0d22d	0.4078535
28	0x3e80b41d	0.25137416
29	0xbd492970	-0.049111784

model.sequential.0.bias f4 [10]
0	0xbd11abe0	-0.035564303
1	0xbeb96585	-0.36210266
2	0xbe55d738	-0.2088288
3	0x3ec01824	0.37518418
4	0xbe6d1264	-0.23151547
5	0x3eb794d6	0.3585574
6	0xbe6a6eac	-0.2289378
7	0xbe09b0fc	-0.1344642
8	0x3c495080	0.012287259
9	0xbf07a1ea	-0.52981436

model.sequential.3.weight f4 [1, 10]
0	0xbb4eee80	-0.0031575263
1	0xbd04d862	-0.03243292
2	0xbce8b980	-0.028408766
3	0xbd81beac	-0.06335196
4	0x3e7f4a46	0.24930677
5	0x3e6e3c75	0.2326525
6	0xbe5b7830	-0.21432567
7	0x3e166bfa	0.14689627
8	0xbe7dff21	-0.24804355
9	0xbe8a1cdc	-0.26975143

square_avg f4 [10, 3]
0	0x00000000	0.0
1	0x00000000	0.0
2	0x00000000	0.0
3	0x00000000	0.0
4	0x00000000	0.0
5	0x00000000	0.0
6	0x00000000	0.0
7	0x00000000	0.0
8	0x00000000	0.0
9	0x00000000	0.0
10	0x00000000	0.0
11	0x00000000	0.0
12	0x00000000	0.0
13	0x00000000	0.0
14	0x00000000	0.0
15	0x00000000	0.0
16	0x00000000	0.0
17	0x00000000	0.0
18	0x00000000	0.0
19	0x00000000	0.0
20	0x00000000	0.0
21	0x00000000	0.0
22	0x00000000	0.0
23	0x00000000	0.0
24	0x00000000	0.0
25	0x00000000	0.0
26	0x00000000	0.0
27	0x00000000	0.0
28	0x00000000	0.0
29	0x00000000	0.0

square_avg f4 [10]
0	0x00000000	0.0
1	0x00000000	0.0
2	0x00000000	0.0
3	0x00000000	0.0
4	0x00000000	0.0
5	0x00000000	0.0
6	0x00000000	0.0
7	0x00000000	0.0
8	0x00000000	0.0
9	0x00000000	0.0

square_avg f4 [1, 10]
0	0x00000000	0.0
1	0x00000000	0.0
2	0x00000000	0.0
3	0x00000000	0.0
4	0x00000000	0.0
5	0x00000000	0.0
6	0x00000000	0.0
7	0x00000000	0.0
8	0x00000000	0.0
9	0x00000000	0.0
