lightning_logs/version_10/checkpoints/epoch=4-step=33330.ckpt (torch, 7282 bytes, 9 tensors)

model.fc1.weight f4 [10, 3]
-0.48990497 -0.06642866 0.5620773 -0.3508199 -0.6919435 -1.0558523 0.34902352 0.036884964
0.07059121 0.11562687 -0.27126318 -0.2449125 -0.31009734 -0.18458012 0.10557443 0.036409788
0.12610324 0.5029487 0.9697426 1.2454636 0.83503455 -0.4209372 0.27669773 0.5591599
-0.5770826 -0.88367337 -1.0271031 -0.508588 0.44438696 0.41535372
00000000: d3d4 fabe c00b 88bd 4ce4 0f3f aa9e b3be
00000010: 3623 31bf 2b26 87bf 36b3 b23e b014 173d
00000020: 2092 903d c8cd ec3d 02e3 8abe 58ca 7abe
00000030: 14c5 9ebe 9202 3dbe 6837 d83d 6e22 153d
00000040: 3521 013e 3fc1 003f 0d41 783f 5a6b 9f3f
00000050: d3c4 553f 1585 d7be 53ab 8d3e 1a25 0f3f
00000060: afbb 13bf 6b38 62bf 1d78 83bf d332 02bf
00000070: b086 e33e 3ea9 d43e

model.fc1.bias f4 [10]
0.11942935 -0.969675 0.2621019 -0.35785392 0.36643028 -0.46666843 1.490108 -0.29129085
-1.2167097 0.05859101
00000000: 6097 f43d 9f3c 78bf 3832 863e a138 b7be
00000010: c09c bb3e 2aef eebe dcbb be3f 1324 95be
00000020: 25bd 9bbf 20fd 6f3d

model.fc2.weight f4 [1, 10]
-0.091812804 -0.8376663 -0.19503902 -0.09996672 0.011033684 -0.107340135 -1.00662 -0.04097155
-0.8517029 0.16753343
00000000: 5a08 bcbd 4c71 56bf 4fb8 47be 5abb ccbd
00000010: a0c6 343c 25d5 dbbd edd8 80bf c9d1 27bd
00000020: 3409 5abf e28d 2b3e

exp_avg f4 [10, 3]
0.0 0.0 0.0 0.0 0.0 0.0 0.0 0.0
0.0 0.0 0.0 0.0 0.0 0.0 0.0 0.0
0.0 0.0 0.0 0.0 0.0 0.0 0.0 0.0
0.0 0.0 0.0 0.0 0.0 0.0
00000000: 0000 0000 0000 0000 0000 0000 0000 0000
00000010: 0000 0000 0000 0000 0000 0000 0000 0000
00000020: 0000 0000 0000 0000 0000 0000 0000 0000
00000030: 0000 0000 0000 0000 0000 0000 0000 0000
00000040: 0000 0000 0000 0000 0000 0000 0000 0000
00000050: 0000 0000 0000 0000 0000 0000 0000 0000
00000060: 0000 0000 0000 0000 0000 0000 0000 0000
00000070: 0000 0000 0000 0000

exp_avg_sq f4 [10, 3]
0.0 0.0 0.0 1.390329e-13 1.5356378e-11 6.9104226e-20 0.0 0.0
0.0 0.0 0.0 0.0 0.0 0.0 0.0 4.3335403e-31
1.6013976e-31 2.6872089e-37 1.4548014e-13 1.6068447e-11 7.230779e-20 0.0 0.0 0.0
9.6227964e-14 1.062849e-11 4.7828362e-20 0.0 0.0 0.0
00000000: 0000 0000 0000 0000 0000 0000 8189 1c2a
00000010: 7d13 872d f12a a31f 0000 0000 0000 0000
00000020: 0000 0000 0000 0000 0000 0000 0000 0000
00000030: 0000 0000 0000 0000 0000 0000 a5a1 0c0d
00000040: 90df 4f0c c8e1 b602 cccb 232a ed56 8d2d
00000050: 61bb aa1f 0000 0000 0000 0000 0000 0000
00000060: a5af d829 77fa 3a2d f1dc 611f 0000 0000
00000070: 0000 0000 0000 0000

exp_avg f4 [10]
0.0 0.0 0.0 0.0 0.0 0.0 0.0 0.0
0.0 0.0
00000000: 0000 0000 0000 0000 0000 0000 0000 0000
00000010: 0000 0000 0000 0000 0000 0000 0000 0000
00000020: 0000 0000 0000 0000

exp_avg_sq f4 [10]
0.0 6.9104226e-20 0.0 0.0 0.0 2.6872089e-37 7.230779e-20 0.0
4.7828362e-20 0.0
00000000: 0000 0000 f12a a31f 0000 0000 0000 0000
00000010: 0000 0000 c8e1 b602 61bb aa1f 0000 0000
00000020: f1dc 611f 0000 0000

exp_avg f4 [1, 10]
0.0 0.0 0.0 0.0 0.0 0.0 0.0 0.0
0.0 0.0
00000000: 0000 0000 0000 0000 0000 0000 0000 0000
00000010: 0000 0000 0000 0000 0000 0000 0000 0000
00000020: 0000 0000 0000 0000

exp_avg_sq f4 [1, 10]
0.0 1.7693808e-10 0.0 0.0 0.0 4.641438e-31 2.3818686e-10 8.213849e-35
1.0857512e-11 0.0
00000000: 0000 0000 a48b 422f 0000 0000 0000 0000
00000010: 0000 0000 8f9f 160d d2f1 822f 8f5c da06
00000020: e301 3f2d 0000 0000
