lightning_logs/version_28/checkpoints/epoch=3-step=26664.ckpt (torch, 7410 bytes, 9 tensors)

model.sequential.0.weight f4 [10, 3]
0	0xbd7fe5c0	-0.062474966
1	0xbcfe08c0	-0.031010032
2	0x3e83e6b0	0.25761938
3	0x3f365a15	0.71231204
4	0x3e67816a	0.22607961
5	0xbe2496eb	-0.16073196
6	0x3f331f9e	0.6997012
7	0x3f1619bb	0.5863301
8	0x3f2542b4	0.64554906
9	0xbf43a1e7	-0.7641892
10	0xbd23e9fd	-0.04001807
11	0x3e0c9798	0.13729703
12	0x3d4d3300	0.050097466
13	0xbf0a0dcd	-0.5392731
14	0x3ecf82b4	0.40529406
15	0xbc6cb728	-0.014447965
16	0x3f0bdd19	0.54634243
17	0x3efebbf8	0.49752784
18	0xbeb7a8a1	-0.3587084
19	0x3e2dad7e	0.16960713
20	0xbf1ce7b7	-0.6129107
21	0x3e06a724	0.13149697
22	0xbebb65e4	-0.36601174
23	0xbd7fb7a0	-0.062430978
24	0x3d9817a8	0.07426387
25	0x3efbd670	0.4918704
26	0xbe8d09d1	-0.27546552
27	0x3d598c57	0.053112354
28	0xbec7bb8d	-0.39010277
29	0xbf16dd90	-0.5893183

model.sequential.0.bias f4 [10]
0	0xbf00b4a5	-0.5027564
1	0xbe593ab1	-0.21213795
2	0x3f7a3bb8	0.97747374
3	0xbf0db463	-0.55353373
4	0x3cec3da0	0.028837979
5	0x3f11f5ac	0.5701549
6	0x3e97848b	0.2959331
7	0x3efc4a30	0.4927535
8	0x3eefbd48	0.46824098
9	0xbf3e2c93	-0.74286765

model.sequential.3.weight f4 [1, 10]
0	0xbd4f8618	-0.05066499
1	0xbf013505	-0.50471526
2	0xbf18245c	-0.5943048
3	0x3e95e308	0.29274774
4	0x3e97f9a7	0.29682657
5	0xbf2abd8c	-0.66695476
6	0x3de35646	0.1110044
7	0xbe27e372	-0.16395357
8	0xbd7c48f8	-0.061593026
9	0xbd869d66	-0.0657299

exp_avg f4 [10, 3]
0	0x00000000	0.0
1	0x00000000	0.0
2	0x00000000	0.0
3	0x00000000	0.0
4	0x00000000	0.0
5	0x00000000	0.0
6	0x00000000	0.0
7	0x00000000	0.0
8	0x00000000	0.0
9	0x00000000	0.0
10	0x00000000	0.0
11	0x00000000	0.0
12	0x00000000	0.0
13	0x00000000	0.0
14	0x00000000	0.0
15	0x00000000	0.0
16	0x00000000	0.0
17	0x00000000	0.0
18	0x00000000	0.0
19	0x00000000	0.0
20	0x00000000	0.0
21	0x00000000	0.0
22	0x00000000	0.0
23	0x00000000	0.0
24	0x00000000	0.0
25	0x00000000	0.0
26	0x00000000	0.0
27	0x00000000	0.0
28	0x00000000	0.0
29	0x00000000	0.0

exp_avg_sq f4 [10, 3]
0	0x00000000	0.0
1	0x00000000	0.0
2	0x00000000	0.0
3	0x3526d066	6.214308e-07
4	0x369287d8	4.3669534e-06
5	0x2b283dc2	5.9771296e-13
6	0x35b664cf	1.3589396e-06
7	0x372037f8	9.549774e-06
8	0x2bb7f44c	1.3070738e-12
9	0x32d74715	2.5061619e-08
10	0x3575652f	9.1416854e-07
11	0x281fad9a	8.863917e-15
12	0x00000000	0.0
13	0x00000000	0.0
14	0x00000000	0.0
15	0x36115f67	2.1662215e-06
16	0x377f6565	1.5222792e-05
17	0x2c129db4	2.083539e-12
18	0x366216d2	3.3689907e-06
19	0x380fd0e2	3.4288394e-05
20	0x2c549951	3.021212e-12
21	0x00000000	0.0
22	0x00000000	0.0
23	0x00000000	0.0
24	0x00000000	0.0
25	0x00000000	0.0
26	0x00000000	0.0
27	0x27e36d12	6.312341e-15
28	0x2a28bff9	1.4988001e-13
29	0x1cfea14b	1.6850003e-21

exp_avg f4 [10]
0	0x00000000	0.0
1	0x00000000	0.0
2	0x00000000	0.0
3	0x00000000	0.0
4	0x00000000	0.0
5	0x00000000	0.0
6	0x00000000	0.0
7	0x00000000	0.0
8	0x00000000	0.0
9	0x00000000	0.0

exp_avg_sq f4 [10]
0	0x00000000	0.0
1	0x2b283dc2	5.9771296e-13
2	0x2bb7f44c	1.3070738e-12
3	0x281fad9a	8.863917e-15
4	0x00000000	0.0
5	0x2c129db4	2.083539e-12
6	0x2c549951	3.021212e-12
7	0x00000000	0.0
8	0x00000000	0.0
9	0x1cfea14b	1.6850003e-21

exp_avg f4 [1, 10]
0	0x00000000	0.0
1	0x00000000	0.0
2	0x00000000	0.0
3	0x00000000	0.0
4	0x00000000	0.0
5	0x00000000	0.0
6	0x00000000	0.0
7	0x00000000	0.0
8	0x00000000	0.0
9	0x00000000	0.0

exp_avg_sq f4 [1, 10]
0	0x00000000	0.0
1	0x34d9a88a	4.0542028e-07
2	0x37b2aa09	2.1298432e-05
3	0x3880ef39	6.148074e-05
4	0x00000000	0.0
5	0x35b3de33	1.3401208e-06
6	0x37b7e79d	2.1923153e-05
7	0x00000000	0.0
8	0x00000000	0.0
9	0x2387d314	1.4726124e-17
