lightning_logs/version_46/checkpoints/epoch=4-step=33330.ckpt (torch, 7410 bytes, 9 tensors)

model.sequential.0.weight f4 [10, 3]
000000 bd 96 51 be 1d ab bf 3e 39 a2 a3 be 5e 1c 06 3f
       -0.20467658 0.37435237 -0.31959704 0.52387035
000010 b2 93 ca 3e fa 46 f9 be 35 50 63 bd bb cf 08 3e
       0.39565808 -0.48686963 -0.055496413 0.13360493
000020 9c 66 c5 3d bd 61 d7 3d 5f 7a 47 3e 8b 2d 3b 3b
       0.09638712 0.10516689 0.19480275 0.0028561081
000030 ed 44 b0 be e1 d8 50 3e 3a 10 1c bf c1 34 af be
       -0.34427586 0.20395233 -0.6096226 -0.34219936
000040 26 ff 13 be 09 fe 8f be e6 d2 4e be 6c 48 f2 be
       -0.144528 -0.281235 -0.20197639 -0.47320879
000050 68 84 fb bd 98 bf fc 3d 51 93 c0 be 00 b9 f2 bc
       -0.12281114 0.12341231 -0.37612393 -0.02962923
000060 b7 66 fe 3e 92 41 ae 3c c2 f5 c3 3d 05 b4 5b 3c
       0.4968774 0.0212715 0.09568359 0.013409619
000070 94 a7 38 3e 6b ce cb 3e
       0.18032676 0.39805922

model.sequential.0.bias f4 [10]
000000 7b 21 14 3f 82 b9 bb 3e 78 6f 0f 3f d0 7d 96 bd
       0.5786359 0.3666497 0.5602946 -0.073482156
000010 e8 0e 13 bf 89 23 8c be 22 47 c9 3e 00 47 75 bb
       -0.5744462 -0.2737086 0.39312083 -0.0037426353
000020 df 4e 54 be 9d ac d2 be
       -0.20733212 -0.41147318

model.sequential.3.weight f4 [1, 10]
000000 5a c9 a7 be f7 a6 88 be 82 3a 23 be 1b 0e 11 3e
       -0.32770807 -0.26689884 -0.15940288 0.14165537
000010 a9 9b cb 3d 5b 26 9c be ca fd 49 3e da 63 7d be
       0.09941799 -0.30498013 0.19725719 -0.24745122
000020 86 d6 18 be a8 4b 44 be
       -0.14925584 -0.19169486

exp_avg f4 [10, 3]
000000 00 00 00 00 00 00 00 00 00 00 00 00 00 00 00 00
       0.0 0.0 0.0 0.0
000010 00 00 00 00 00 00 00 00 00 00 00 00 00 00 00 00
       0.0 0.0 0.0 0.0
000020 00 00 00 00 00 00 00 00 00 00 00 00 00 00 00 00
       0.0 0.0 0.0 0.0
000030 00 00 00 00 00 00 00 00 00 00 00 00 00 00 00 00
       0.0 0.0 0.0 0.0
000040 00 00 00 00 00 00 00 00 00 00 00 00 00 00 00 00
       0.0 0.0 0.0 0.0
000050 00 00 00 00 00 00 00 00 00 00 00 00 00 00 00 00
       0.0 0.0 0.0 0.0
000060 00 00 00 00 00 00 00 00 00 00 00 00 00 00 00 00
       0.0 0.0 0.0 0.0
000070 00 00 00 00 00 00 00 00
       0.0 0.0

exp_avg_sq f4 [10, 3]
000000 9c f2 c5 2e e2 27 bb 2f d5 da 2e 25 00 00 00 00
       9.001619e-11 3.404344e-10 1.5166237e-16 0.0
000010 00 00 00 00 00 00 00 00 d9 f9 ab 2b 5e 26 93 2f
       0.0 0.0 1.2219627e-12 2.6766406e-10
000020 8d 6c 95 21 88 f2 07 2e f5 88 00 2f 8b 2c 70 24
       1.0125366e-18 3.0910857e-11 1.1690189e-10 5.2079434e-17
000030 ee 57 0a 2f 84 29 41 32 16 6b 06 25 00 00 00 00
       1.2582266e-10 1.1243518e-08 1.165893e-16 0.0
000040 00 00 00 00 00 00 00 00 00 00 00 00 00 00 00 00
       0.0 0.0 0.0 0.0
000050 00 00 00 00 00 00 00 00 00 00 00 00 00 00 00 00
       0.0 0.0 0.0 0.0
000060 c4 a0 6d 2f b4 0a 29 33 b4 54 52 25 2c f8 10 2f
       2.161214e-10 3.9358113e-08 1.8243295e-16 1.3184892e-10
000070 10 9d 82 32 90 0c d1 24
       1.5205416e-08 9.0660583e-17

exp_avg f4 [10]
000000 00 00 00 00 00 00 00 00 00 00 00 00 00 00 00 00
       0.0 0.0 0.0 0.0
000010 00 00 00 00 00 00 00 00 00 00 00 00 00 00 00 00
       0.0 0.0 0.0 0.0
000020 00 00 00 00 00 00 00 00
       0.0 0.0

exp_avg_sq f4 [10]
000000 d5 da 2e 25 00 00 00 00 8d 6c 95 21 8b 2c 70 24
       1.5166237e-16 0.0 1.0125366e-18 5.2079434e-17
000010 16 6b 06 25 00 00 00 00 00 00 00 00 00 00 00 00
       1.165893e-16 0.0 0.0 0.0
000020 b4 54 52 25 90 0c d1 24
       1.8243295e-16 9.0660583e-17

exp_avg f4 [1, 10]
000000 00 00 00 00 00 00 00 00 00 00 00 00 00 00 00 00
       0.0 0.0 0.0 0.0
000010 00 00 00 00 00 00 00 00 00 00 00 00 00 00 00 00
       0.0 0.0 0.0 0.0
000020 00 00 00 00 00 00 00 00
       0.0 0.0

exp_avg_sq f4 [1, 10]
000000 98 fe 50 2f 00 00 00 00 7f 73 26 2f 11 77 bc 2f
       1.900794e-10 0.0 1.5138645e-10 3.4281603e-10
000010 b4 05 e7 32 00 00 00 00 00 00 00 00 00 00 00 00
       2.6894533e-08 0.0 0.0 0.0
000020 3c 90 d6 30 99 3c 5c 32
       1.5611543e-09 1.2819464e-08
