lightning_logs/version_22/checkpoints/epoch=3-step=26664.ckpt (torch, 7282 bytes, 9 tensors)

model.fc1.weight f4 [10, 3]
0	0x3edae940	0.4275608
1	0x3e86f732	0.2636047
2	0xbee8be3d	-0.4545764
3	0x3e84944e	0.25894397
4	0xbed0f5f9	-0.40812662
5	0xbe7a9178	-0.24469554
6	0x3e2de324	0.16981179
7	0x3e433638	0.19063652
8	0x3eddc518	0.43314433
9	0xbef98d80	-0.48740768
10	0xbe99eb8f	-0.3006253
11	0x3e982efe	0.29723352
12	0xbef0045c	-0.46878326
13	0x3f01c97e	0.5069808
14	0xbec69518	-0.38785625
15	0x3c025f80	0.007957339
16	0xbdc907b4	-0.098159224
17	0xbe9bafb0	-0.30407476
18	0xbc6ad80a	-0.014333734
19	0x3ec4633c	0.3835696
20	0xbe859b94	-0.2609526
21	0xbeaf7f7a	-0.34276944
22	0xbe5aa6b4	-0.21352655
23	0xbf127e4e	-0.57223976
24	0x3e856efe	0.26061243
25	0xbe8df7b2	-0.2772804
26	0xbec5449c	-0.38528907
27	0xbeaa4c29	-0.3326123
28	0x3ea9f57c	0.33195102
29	0x3e9c8b32	0.30574948

model.fc1.bias f4 [10]
0	0x3eb50601	0.35356143
1	0x3e5671c0	0.2094183
2	0xbe457070	-0.19281173
3	0xbeecffc4	-0.46288884
4	0x3e85304d	0.26013413
5	0x3ef2ff08	0.47460198
6	0x3d84b336	0.06479494
7	0xbe8bdd04	-0.2731706
8	0xbe8af4da	-0.27139932
9	0xbf0bbded	-0.5458668

model.fc2.weight f4 [1, 10]
0	0xbcae0f0e	-0.021247413
1	0xbe35b877	-0.17746149
2	0xbe905a93	-0.28194103
3	0xbcc6b670	-0.024256915
4	0xbe9700ff	-0.29492947
5	0xbd135a10	-0.035974562
6	0xbe243afa	-0.16038123
7	0x3c250f80	0.010074496
8	0xbe59e404	-0.21278387
9	0xbe82dfcf	-0.25561377

exp_avg f4 [10, 3]
0	0x00000000	0.0
1	0x00000000	0.0
2	0x00000000	0.0
3	0x00000000	0.0
4	0x00000000	0.0
5	0x00000000	0.0
6	0x00000000	0.0
7	0x00000000	0.0
8	0x00000000	0.0
9	0x00000000	0.0
10	0x00000000	0.0
11	0x00000000	0.0
12	0x00000000	0.0
13	0x00000000	0.0
14	0x00000000	0.0
15	0x00000000	0.0
16	0x00000000	0.0
17	0x00000000	0.0
18	0x00000000	0.0
19	0x00000000	0.0
20	0x00000000	0.0
21	0x00000000	0.0
22	0x00000000	0.0
23	0x00000000	0.0
24	0x00000000	0.0
25	0x00000000	0.0
26	0x00000000	0.0
27	0x00000000	0.0
28	0x00000000	0.0
29	0x00000000	0.0

exp_avg_sq f4 [10, 3]
0	0x2e94d662	6.768343e-11
1	0x319e274d	4.602873e-09
2	0x24272973	3.624746e-17
3	0x00000000	0.0
4	0x00000000	0.0
5	0x00000000	0.0
6	0x00000000	0.0
7	0x00000000	0.0
8	0x00000000	0.0
9	0x2dfaf031	2.8528376e-11
10	0x36bdcb9c	5.656342e-06
11	0x00000000	0.0
12	0x3028191f	6.1153743e-10
13	0x33329ea3	4.1588134e-08
14	0x25bccb03	3.2750367e-16
15	0x00000000	0.0
16	0x00000000	0.0
17	0x00000000	0.0
18	0x2f02dd9a	1.190216e-10
19	0x320b1f79	8.098021e-09
20	0x24930013	6.3751213e-17
21	0x00000000	0.0
22	0x00000000	0.0
23	0x00000000	0.0
24	0x00000000	0.0
25	0x00000000	0.0
26	0x00000000	0.0
27	0x00000000	0.0
28	0x00000000	0.0
29	0x00000000	0.0

exp_avg f4 [10]
0	0x00000000	0.0
1	0x00000000	0.0
2	0x00000000	0.0
3	0x00000000	0.0
4	0x00000000	0.0
5	0x00000000	0.0
6	0x00000000	0.0
7	0x00000000	0.0
8	0x00000000	0.0
9	0x00000000	0.0

exp_avg_sq f4 [10]
0	0x24272973	3.624746e-17
1	0x00000000	0.0
2	0x00000000	0.0
3	0x27c77133	5.5356326e-15
4	0x25bccb03	3.2750367e-16
5	0x00000000	0.0
6	0x24930013	6.3751213e-17
7	0x00000000	0.0
8	0x00000000	0.0
9	0x00000000	0.0

exp_avg f4 [1, 10]
0	0x00000000	0.0
1	0x00000000	0.0
2	0x00000000	0.0
3	0x00000000	0.0
4	0x00000000	0.0
5	0x00000000	0.0
6	0x00000000	0.0
7	0x00000000	0.0
8	0x00000000	0.0
9	0x00000000	0.0

exp_avg_sq f4 [1, 10]
0	0x343723b8	1.7056198e-07
1	0x00000000	0.0
2	0x00000000	0.0
3	0x2da2eba8	1.852192e-11
4	0x34017818	1.2057751e-07
5	0x00000000	0.0
6	0x3558f672	8.0824896e-07
7	0x00000000	0.0
8	0x00000000	0.0
9	0x00000000	0.0
