lightning_logs/version_11/checkpoints/epoch=4-step=33330.ckpt (torch, 7282 bytes, 9 tensors)

model.fc1.weight f4 [10, 3]
000000 fa 3b 76 3e c6 ab 08 3e fb 82 84 be 7f a3 10 3c
       0.24046317 0.13346776 -0.2588118 0.008828043
000010 8c 20 85 3e e6 cb e7 be 55 39 c5 3e cc bf 38 3f
       0.26001394 -0.4527275 0.38520303 0.7216766
000020 7f d5 00 bf d3 20 3c 3f d2 82 a9 3f 89 27 ad 3e
       -0.5032577 0.73487586 1.3243048 0.33819225
000030 fa 64 b9 3d 59 07 cc be 01 bd 00 3d 0f 5b 75 bd
       0.09052463 -0.39849356 0.03143025 -0.059901293
000040 65 b5 04 bf 94 51 00 bf 5e f6 8a be 8f 70 ed be
       -0.51839286 -0.5012448 -0.27141088 -0.46374938
000050 bb 02 97 bc 51 46 46 bf 86 40 16 bf 78 3f 31 3e
       -0.01843392 -0.77451044 -0.58692205 0.17309368
000060 06 c4 d6 3e 9b a0 7d 3f 39 6a 86 3e ea 98 15 3e
       0.4194643 0.9907319 0.26252916 0.14609113
000070 19 c7 f1 be e6 38 a3 be
       -0.47222212 -0.31879348

model.fc1.bias f4 [10]
000000 77 bf 87 be 2f 48 d2 3e 0e d2 76 3e 96 5e 7c bd
       -0.26513264 0.41070697 0.24103567 -0.06161364
000010 9e 27 ca 3e ff 5e 1d be 0b e7 54 be 54 b3 37 be
       0.3948335 -0.1536827 -0.20791261 -0.17939502
000020 49 dd ec 3e 90 97 c4 be
       0.46262577 -0.38396883

model.fc2.weight f4 [1, 10]
000000 3b d1 a3 bf 4e f2 37 bf f1 e6 73 bf 7e 42 a7 bf
       -1.2798227 -0.718541 -0.95274264 -1.3067167
000010 fa 2e a4 bf a8 aa c5 3d 27 c2 98 bf b1 58 72 be
       -1.2826836 0.09651691 -1.193425 -0.23666646
000020 88 dc 82 bf 80 18 11 bf
       -1.0223551 -0.5667801

exp_avg f4 [10, 3]
000000 00 00 00 00 00 00 00 00 00 00 00 00 00 00 00 00
       0.0 0.0 0.0 0.0
000010 00 00 00 00 00 00 00 00 00 00 00 00 00 00 00 00
       0.0 0.0 0.0 0.0
000020 00 00 00 00 00 00 00 00 00 00 00 00 00 00 00 00
       0.0 0.0 0.0 0.0
000030 00 00 00 00 00 00 00 00 00 00 00 00 00 00 00 00
       0.0 0.0 0.0 0.0
000040 00 00 00 00 00 00 00 00 00 00 00 00 00 00 00 00
       0.0 0.0 0.0 0.0
000050 00 00 00 00 00 00 00 00 00 00 00 00 00 00 00 00
       0.0 0.0 0.0 0.0
000060 00 00 00 00 00 00 00 00 00 00 00 00 00 00 00 00
       0.0 0.0 0.0 0.0
000070 00 00 00 00 00 00 00 00
       0.0 0.0

exp_avg_sq f4 [10, 3]
000000 1b 50 1f 08 41 5e 39 0b 00 00 00 00 bf 3c 36 04
       4.7941486e-34 3.5700613e-32 0.0 2.142189e-36
000010 56 35 17 07 00 00 00 00 be 88 cc 07 b7 b5 a9 0a
       1.1375651e-34 0.0 3.0774878e-34 1.6342462e-32
000020 00 00 00 00 a9 33 5e 09 8f 5e 38 0c 00 00 00 00
       0.0 2.6746568e-33 1.42033e-31 0.0
000030 61 bb ec 08 4b 24 c8 0b 00 00 00 00 ba 9f 2a 08
       1.4247786e-33 7.7091805e-32 0.0 5.134527e-34
000040 a0 92 0d 0b 00 00 00 00 e8 71 dc 08 7c f3 bd 0b
       2.726592e-32 0.0 1.3267548e-33 7.3166506e-32
000050 00 00 00 00 68 d8 41 09 75 d7 20 0c 00 00 00 00
       0.0 2.3333284e-33 1.2390788e-31 0.0
000060 b9 a2 3d 09 75 59 1d 0c 00 00 00 00 ff 7c cf 08
       2.282656e-33 1.212176e-31 0.0 1.2487746e-33
000070 41 29 ac 0b 00 00 00 00
       6.631406e-32 0.0

exp_avg f4 [10]
000000 00 00 00 00 00 00 00 00 00 00 00 00 00 00 00 00
       0.0 0.0 0.0 0.0
000010 00 00 00 00 00 00 00 00 00 00 00 00 00 00 00 00
       0.0 0.0 0.0 0.0
000020 00 00 00 00 00 00 00 00
       0.0 0.0

exp_avg_sq f4 [10]
000000 00 00 00 00 00 00 00 00 00 00 00 00 00 00 00 00
       0.0 0.0 0.0 0.0
000010 00 00 00 00 00 00 00 00 00 00 00 00 00 00 00 00
       0.0 0.0 0.0 0.0
000020 00 00 00 00 00 00 00 00
       0.0 0.0

exp_avg f4 [1, 10]
000000 00 00 00 00 00 00 00 00 00 00 00 00 00 00 00 00
       0.0 0.0 0.0 0.0
000010 00 00 00 00 00 00 00 00 00 00 00 00 00 00 00 00
       0.0 0.0 0.0 0.0
000020 00 00 00 00 00 00 00 00
       0.0 0.0

exp_avg_sq f4 [1, 10]
000000 6c c2 05 0d 5a 09 e1 0b f3 01 8a 0c 70 d8 67 0d
       4.1217816e-31 8.668092e-32 2.126344e-31 7.14429e-31
000010 63 0d 4b 0d 66 70 bd 05 75 30 fd 0c f6 52 ec 0a
       6.257032e-31 1.7814763e-35 3.9009986e-31 2.275718e-32
000020 d7 ae 23 0c 05 e8 0c 0c
       1.2609677e-31 1.0855029e-31
