lightning_logs/version_40/checkpoints/epoch=4-step=33330.ckpt (torch, 7410 bytes, 9 tensors)

model.sequential.0.weight f4 [10, 3]
000000 a5 20 12 3f 77 27 2a 3e 3f f5 f1 3e da 9d 96 3e
       0.5708106 0.16616617 0.4725742 0.29417306
000010 b5 35 b8 3e 8a c2 e8 be 53 cc 01 bf 36 87 34 3e
       0.35978475 -0.45460922 -0.507024 0.17629704
000020 c3 68 89 be 7b 56 e5 be 80 53 14 3f ad 55 96 3c
       -0.2683774 -0.44792542 0.5793991 0.0183514
000030 5c 75 ee 3e 6c 0c e7 be 80 8c 4b 3e 64 b0 5e be
       0.46573913 -0.45126665 0.19877815 -0.21746975
000040 f2 c9 78 be 9c 9d f6 bd 9e 88 0b be 4f a1 c9 3e
       -0.24295786 -0.1204178 -0.13626334 0.3938088
000050 98 1a 73 bd 42 7a 03 3f f5 73 50 3e c8 a2 1a bd
       -0.059351534 0.51358426 0.20356734 -0.037752897
000060 85 bd aa be 87 56 07 bf da 77 2c be 78 de 08 bf
       -0.33347717 -0.52866405 -0.16842595 -0.5346446
000070 08 11 db bd 00 9b 1a 3c
       -0.10696608 0.009436369

model.sequential.0.bias f4 [10]
000000 e0 9b 9f 3d 2b 29 6d be 18 fe 6a 3e 06 4a c2 3e
       0.07793403 -0.23160236 0.22948492 0.379471
000010 e8 a8 11 be d6 96 69 be ec a5 df 3e f3 c1 13 3f
       -0.14224589 -0.22811446 0.43681276 0.5771782
000020 39 55 07 bf a8 78 ff bd
       -0.52864414 -0.12474185

model.sequential.3.weight f4 [1, 10]
000000 40 f7 12 be c3 b9 2b be f6 af cf 3d e8 fc ce bd
       -0.14352131 -0.16770081 0.10140984 -0.10106832
000010 23 46 89 3e 00 e8 cc 3a 11 db e4 bd ca e3 83 be
       0.26811323 0.0015633106 -0.11174596 -0.25759727
000020 b6 57 d7 bd e0 af d0 3d
       -0.105147764 0.101897955

exp_avg f4 [10, 3]
000000 00 00 00 00 00 00 00 00 00 00 00 00 00 00 00 00
       0.0 0.0 0.0 0.0
000010 00 00 00 00 00 00 00 00 00 00 00 00 00 00 00 00
       0.0 0.0 0.0 0.0
000020 00 00 00 00 00 00 00 00 00 00 00 00 00 00 00 00
       0.0 0.0 0.0 0.0
000030 00 00 00 00 00 00 00 00 00 00 00 00 00 00 00 00
       0.0 0.0 0.0 0.0
000040 00 00 00 00 00 00 00 00 00 00 00 00 00 00 00 00
       0.0 0.0 0.0 0.0
000050 00 00 00 00 00 00 00 00 00 00 00 00 00 00 00 00
       0.0 0.0 0.0 0.0
000060 00 00 00 00 00 00 00 00 00 00 00 00 00 00 00 00
       0.0 0.0 0.0 0.0
000070 00 00 00 00 00 00 00 00
       0.0 0.0

exp_avg_sq f4 [10, 3]
000000 46 a6 be 2d dd 81 89 31 36 04 ca 23 60 61 eb 28
       2.167434e-11 4.0019885e-09 2.1902667e-17 2.613247e-14
000010 a2 58 f7 2f 65 cd 4c 22 77 0a 4a 2e 48 bd 30 32
       4.4992016e-10 2.775589e-18 4.5938777e-11 1.0287586e-08
000020 6c 8b 4e 24 a9 c2 97 2b 0a 55 7d 2f 97 89 63 21
       4.4787224e-17 1.0783224e-12 2.3040428e-10 7.709269e-19
000030 00 00 00 00 00 00 00 00 00 00 00 00 00 00 00 00
       0.0 0.0 0.0 0.0
000040 00 00 00 00 00 00 00 00 14 41 90 2c bf 29 8b 30
       0.0 0.0 4.0999513e-12 1.0125446e-09
000050 f5 79 4e 22 6f 27 22 25 22 58 9e 28 34 27 0a 1b
       2.798277e-18 1.4064621e-16 1.7579745e-14 1.142776e-22
000060 00 00 00 00 00 00 00 00 00 00 00 00 00 00 00 00
       0.0 0.0 0.0 0.0
000070 00 00 00 00 00 00 00 00
       0.0 0.0

exp_avg f4 [10]
000000 00 00 00 00 00 00 00 00 00 00 00 00 00 00 00 00
       0.0 0.0 0.0 0.0
000010 00 00 00 00 00 00 00 00 00 00 00 00 00 00 00 00
       0.0 0.0 0.0 0.0
000020 00 00 00 00 00 00 00 00
       0.0 0.0

exp_avg_sq f4 [10]
000000 36 04 ca 23 65 cd 4c 22 6c 8b 4e 24 97 89 63 21
       2.1902667e-17 2.775589e-18 4.4787224e-17 7.709269e-19
000010 00 00 00 00 00 00 00 00 f5 79 4e 22 3b a7 0d 1b
       0.0 0.0 2.798277e-18 1.1717282e-22
000020 00 00 00 00 00 00 00 00
       0.0 0.0

exp_avg f4 [1, 10]
000000 00 00 00 00 00 00 00 00 00 00 00 00 00 00 00 00
       0.0 0.0 0.0 0.0
000010 00 00 00 00 00 00 00 00 00 00 00 00 00 00 00 00
       0.0 0.0 0.0 0.0
000020 00 00 00 00 00 00 00 00
       0.0 0.0

exp_avg_sq f4 [1, 10]
000000 1d 57 26 32 5b a2 34 31 17 47 98 32 bf 7e 55 32
       9.682279e-09 2.6285736e-09 1.7727457e-08 1.24270505e-08
000010 00 00 00 00 00 00 00 00 83 fb a6 32 45 0e 8c 28
       0.0 0.0 1.9439318e-08 1.554931e-14
000020 00 00 00 00 00 00 00 00
       0.0 0.0
