lightning_logs/version_30/checkpoints/epoch=3-step=26664.ckpt (torch, 5387 bytes, 6 tensors)

model.sequential.0.weight f4 [10, 3]
0	0x3e202174	0.15637761
1	0xbecd8d62	-0.4014693
2	0x3dc317d8	0.09526032
3	0x3e8507ba	0.25982457
4	0xbe5ec094	-0.2175315
5	0x3ef7e909	0.4841998
6	0xbd448b76	-0.047984563
7	0x3e810224	0.25196946
8	0x3f114f21	0.56761366
9	0xbe2a7a98	-0.16648328
10	0x3ea5bfa3	0.3237277
11	0xbe231c0b	-0.15928666
12	0xbdacb7f8	-0.08433527
13	0xbdc8628c	-0.09784421
14	0xbb6b1100	-0.0035868287
15	0xbe5f56d6	-0.21810469
16	0x3e0a9234	0.13532335
17	0x3cb23720	0.021754801
18	0x3ebb6144	0.36597645
19	0xbdef53a8	-0.11685878
20	0x3d6d2530	0.057896793
21	0xbe5bec54	-0.21476871
22	0xbef78dda	-0.48350412
23	0x3e6f3df4	0.23363477
24	0x3d974c98	0.07387656
25	0xbe6cc4c6	-0.23121938
26	0xbe47e3d0	-0.19520497
27	0x3e1a9cf8	0.15098941
28	0xbdd5cce0	-0.104394674
29	0x3ec12b6e	0.37728447

model.sequential.0.bias f4 [10]
0	0x3d05f380	0.032702923
1	0x3e640f7a	0.22271529
2	0x3e7d58e2	0.24740937
3	0xbe0b11c3	-0.13580994
4	0x3e7fcb5c	0.24979919
5	0x3eda22b4	0.426046
6	0x3cd9a6a0	0.02656871
7	0x3de763d0	0.112983346
8	0x3cabdac0	0.020978332
9	0x3eccaa86	0.3997385

model.sequential.3.weight f4 [1, 10]
0	0xbe08b6d0	-0.13350987
1	0xbe365b82	-0.17808345
2	0x3e02e09e	0.12780997
3	0xbe91f9cd	-0.28510895
4	0x3ba62180	0.0050699115
5	0xbe14ebb0	-0.14543033
6	0x3e55baf2	0.20872095
7	0xbe96be46	-0.29442042
8	0x3e445746	0.19173917
9	0x3ea02f75	0.31286207

square_avg f4 [10, 3]
0	0x00000000	0.0
1	0x00000000	0.0
2	0x00000000	0.0
3	0x00000000	0.0
4	0x00000000	0.0
5	0x00000000	0.0
6	0x00000000	0.0
7	0x00000000	0.0
8	0x00000000	0.0
9	0x00000000	0.0
10	0x00000000	0.0
11	0x00000000	0.0
12	0x00000000	0.0
13	0x00000000	0.0
14	0x00000000	0.0
15	0x00000000	0.0
16	0x00000000	0.0
17	0x00000000	0.0
18	0x00000000	0.0
19	0x00000000	0.0
20	0x00000000	0.0
21	0x00000000	0.0
22	0x00000000	0.0
23	0x00000000	0.0
24	0x00000000	0.0
25	0x00000000	0.0
26	0x00000000	0.0
27	0x00000000	0.0
28	0x00000000	0.0
29	0x00000000	0.0

square_avg f4 [10]
0	0x00000000	0.0
1	0x00000000	0.0
2	0x00000000	0.0
3	0x00000000	0.0
4	0x00000000	0.0
5	0x00000000	0.0
6	0x00000000	0.0
7	0x00000000	0.0
8	0x00000000	0.0
9	0x00000000	0.0

square_avg f4 [1, 10]
0	0x00000000	0.0
1	0x00000000	0.0
2	0x00000000	0.0
3	0x00000000	0.0
4	0x00000000	0.0
5	0x00000000	0.0
6	0x00000000	0.0
7	0x00000000	0.0
8	0x00000000	0.0
9	0x00000000	0.0
