lightning_logs/version_36/checkpoints/epoch=2-step=19998.ckpt (torch, 7410 bytes, 9 tensors)

model.sequential.0.weight f4 [10, 3]
00000000: bee0 97bd 0291 123f 68e7 d3be 3192 d2be
00000010: 0866 36be c08e 243c 3554 ef3d b069 b3bd
00000020: a05b 0ebe 383d b3be dc29 d4bd 02fe 6dbe
00000030: 90d3 ee3e 1edf 0fbf a28d bcbe fe7f f0be
00000040: 1418 d8bd 185b e63e d08d 013f 66ab 00bf
00000050: c0eb ccbc e1ad 1dbe c724 43be 55f7 553c
00000060: 2031 83bc 1e9d c6be f68c c33e fe20 62be
00000070: 9887 4e3e e558 1438
-0.07415913 0.57252514 -0.41387486 -0.4112716 -0.1781236 0.0100438 0.11685983 -0.08760393
-0.1390214 -0.35007644 -0.103595465 -0.23241428 0.46645784 -0.56199825 -0.36826807 -0.4697265
-0.105514675 0.44991374 0.50607014 -0.50261533 -0.025014758 -0.15398361 -0.19056998 0.013059457
-0.016014636 -0.38791746 0.38193482 -0.22082898 0.20168912 3.536874e-05

model.sequential.0.bias f4 [10]
00000000: 53c7 b93e c8ef 043f a66c 093f 5682 06bf
00000010: 2989 c3be c071 74be ae81 bcbe 9ce5 c23d
00000020: d0db 50bd e1ca e8be
0.36284885 0.5192838 0.5368141 -0.52542627 -0.38190582 -0.23871517 -0.36817688 0.09516451
-0.05099088 -0.45467284

model.sequential.3.weight f4 [1, 10]
00000000: ec31 84be 7cdd 32be b974 7a3d 9839 8dbe
00000010: cff6 96be 6d9a 9fbe 4069 0b3e 6cf7 9abe
00000020: ba1d 49be a62b 78bd
-0.25819337 -0.17467302 0.06114647 -0.27583003 -0.29485175 -0.31172505 0.13614368 -0.30266893
-0.19640246 -0.0605885

exp_avg f4 [10, 3]
00000000: 0000 0000 0000 0000 0000 0000 0000 0000
00000010: 0000 0000 0000 0000 0000 0000 0000 0000
00000020: 0000 0000 0000 0000 0000 0000 0000 0000
00000030: 0000 0000 0000 0000 0000 0000 0000 0000
00000040: 0000 0000 0000 0000 0000 0000 0000 0000
00000050: 0000 0000 0000 0000 0000 0000 0000 0000
00000060: 0000 0000 0000 0000 0000 0000 0000 0000
00000070: 0000 0000 0000 0000
0.0 0.0 0.0 0.0 0.0 0.0 0.0 0.0
0.0 0.0 0.0 0.0 0.0 0.0 0.0 0.0
0.0 0.0 0.0 0.0 0.0 0.0 0.0 0.0
0.0 0.0 0.0 0.0 0.0 0.0

exp_avg_sq f4 [10, 3]
00000000: 7e40 382c b266 9832 0000 0000 0000 0000
00000010: 0000 0000 0000 0000 f783 2314 55bb 4817
00000020: 0e3f 9609 0000 0000 0000 0000 0000 0000
00000030: 0000 0000 0000 0000 0000 0000 0000 0000
00000040: 0000 0000 0000 0000 0000 0000 0000 0000
00000050: 0000 0000 d488 d135 81be 0238 c564 ff2b
00000060: 0000 0000 0000 0000 0000 0000 b3a2 cc2b
00000070: 7be9 c031 6ece b520
2.6183773e-12 1.774183e-08 0.0 0.0 0.0 0.0 8.2554224e-27 6.485993e-25
3.6170483e-33 0.0 0.0 0.0 0.0 0.0 0.0 0.0
0.0 0.0 0.0 0.0 0.0 1.5611536e-06 3.1171836e-05 1.8146809e-12
0.0 0.0 0.0 1.454023e-12 5.614479e-09 3.0799196e-19

exp_avg f4 [10]
00000000: 0000 0000 0000 0000 0000 0000 0000 0000
00000010: 0000 0000 0000 0000 0000 0000 0000 0000
00000020: 0000 0000 0000 0000
0.0 0.0 0.0 0.0 0.0 0.0 0.0 0.0
0.0 0.0

exp_avg_sq f4 [10]
00000000: 8a26 1f23 0000 0000 0e3f 9609 0000 0000
00000010: 0000 0000 0000 0000 0000 0000 3765 ff2b
00000020: 0000 0000 3d21 5c22
8.627568e-18 0.0 3.6170483e-33 0.0 0.0 0.0 0.0 1.8146933e-12
0.0 2.9833156e-18

exp_avg f4 [1, 10]
00000000: 0000 0000 0000 0000 0000 0000 0000 0000
00000010: 0000 0000 0000 0000 0000 0000 0000 0000
00000020: 0000 0000 0000 0000
0.0 0.0 0.0 0.0 0.0 0.0 0.0 0.0
0.0 0.0

exp_avg_sq f4 [1, 10]
00000000: b517 4534 0000 0000 ce84 6d15 0000 0000
00000010: 0000 0000 0000 0000 0000 0000 570c 773b
00000020: 0000 0000 d807 ad33
1.8355679e-07 0.0 4.7966533e-26 0.0 0.0 0.0 0.0 0.0037696564
0.0 8.057367e-08
