lightning_logs/version_23/checkpoints/epoch=3-step=26664.ckpt (torch, 7282 bytes, 9 tensors)

model.fc1.weight f4 [10, 3]
000000 6c 32 72 3e 9a cb 46 be 81 9e 8e be 28 6a d4 3d
       0.23652047 -0.19413605 -0.27855304 0.1037181
000010 a0 8d 99 be 84 37 08 3e 10 34 e8 3d 7c 7b db be
       -0.29990864 0.13302428 0.11338055 -0.4286765
000020 c0 de c4 3d ec cf 7b 3e 98 04 6a 3e 38 d7 94 bd
       0.09612799 0.24591035 0.22853315 -0.07267612
000030 fb 54 f2 be 18 46 b6 bd a4 54 4d 3e d5 58 02 bf
       -0.4733046 -0.08900088 0.20051819 -0.50916797
000040 fe 7e a3 bd f5 6b 86 3e f9 ee c1 bc 2e 74 90 3e
       -0.07983206 0.2625424 -0.023673521 0.28213638
000050 19 ee dc 3e 57 c9 81 be 55 6a 80 be a4 d6 ad bd
       0.43150404 -0.25348923 -0.25081125 -0.08488205
000060 f3 de 27 bf 19 3f 20 be 3a af 4a 3e 74 17 63 3e
       -0.6557457 -0.1564907 0.19793406 0.22176915
000070 4c 4f 25 3d 99 7a 2e bd
       0.040358827 -0.042597387

model.fc1.bias f4 [10]
000000 0c 0d 8a 3e 15 ce 8f be 8a f6 f4 be 0f 32 fe be
       0.2696308 -0.28086916 -0.47844344 -0.49647567
000010 ca 72 13 3f e8 69 7a 3e a7 70 fa bd 25 21 8d 3d
       0.5759703 0.24454463 -0.12228518 0.068910874
000020 75 c0 6f 3e 62 11 ea 3e
       0.2341326 0.45716387

model.fc2.weight f4 [1, 10]
000000 73 92 8d 3e ee e0 7a 3e e8 79 94 bd 2c 48 e3 bd
       0.27650794 0.24499866 -0.07249814 -0.1109775
000010 55 ef 84 3e 6b 62 f9 bd 60 d5 f5 be 0b e1 6b bc
       0.25963846 -0.12176975 -0.48014355 -0.014396916
000020 7d 03 49 bd 02 ba 01 be
       -0.049075592 -0.12668613

exp_avg f4 [10, 3]
000000 00 00 00 00 00 00 00 00 00 00 00 00 00 00 00 00
       0.0 0.0 0.0 0.0
000010 00 00 00 00 00 00 00 00 00 00 00 00 00 00 00 00
       0.0 0.0 0.0 0.0
000020 00 00 00 00 00 00 00 00 00 00 00 00 00 00 00 00
       0.0 0.0 0.0 0.0
000030 00 00 00 00 00 00 00 00 00 00 00 00 00 00 00 00
       0.0 0.0 0.0 0.0
000040 00 00 00 00 00 00 00 00 00 00 00 00 00 00 00 00
       0.0 0.0 0.0 0.0
000050 00 00 00 00 00 00 00 00 00 00 00 00 00 00 00 00
       0.0 0.0 0.0 0.0
000060 00 00 00 00 00 00 00 00 00 00 00 00 00 00 00 00
       0.0 0.0 0.0 0.0
000070 00 00 00 00 00 00 00 00
       0.0 0.0

exp_avg_sq f4 [10, 3]
000000 00 00 00 00 00 00 00 00 00 00 00 00 00 00 00 00
       0.0 0.0 0.0 0.0
000010 00 00 00 00 00 00 00 00 00 00 00 00 00 00 00 00
       0.0 0.0 0.0 0.0
000020 00 00 00 00 00 00 00 00 00 00 00 00 00 00 00 00
       0.0 0.0 0.0 0.0
000030 00 00 00 00 00 00 00 00 00 00 00 00 e4 38 0d 1c
       0.0 0.0 0.0 4.6726516e-22
000040 bf ac 21 1e 00 97 98 12 b6 f3 1d 25 ac 33 15 2b
       8.558992e-21 9.629773e-28 1.3700152e-16 5.3007143e-13
000050 46 42 04 14 96 bc b5 1c 8c 0e d0 1e 84 5d 44 13
       6.677367e-27 1.2026324e-21 2.2028873e-20 2.4784785e-27
000060 aa 2f 69 30 51 68 be 33 08 d2 9c 25 68 a4 05 1c
       8.483264e-10 8.8665395e-08 2.720401e-16 4.42185e-22
000070 4a ff 18 1e 66 66 90 12
       8.0996055e-21 9.112921e-28

exp_avg f4 [10]
000000 00 00 00 00 00 00 00 00 00 00 00 00 00 00 00 00
       0.0 0.0 0.0 0.0
000010 00 00 00 00 00 00 00 00 00 00 00 00 00 00 00 00
       0.0 0.0 0.0 0.0
000020 00 00 00 00 00 00 00 00
       0.0 0.0

exp_avg_sq f4 [10]
000000 00 00 00 00 00 00 00 00 00 00 00 00 00 00 00 00
       0.0 0.0 0.0 0.0
000010 00 00 00 00 00 97 98 12 16 2e c2 1c 84 5d 44 13
       0.0 9.629773e-28 1.2849756e-21 2.4784785e-27
000020 08 d2 9c 25 66 66 90 12
       2.720401e-16 9.112921e-28

exp_avg f4 [1, 10]
000000 00 00 00 00 00 00 00 00 00 00 00 00 00 00 00 00
       0.0 0.0 0.0 0.0
000010 00 00 00 00 00 00 00 00 00 00 00 00 00 00 00 00
       0.0 0.0 0.0 0.0
000020 00 00 00 00 00 00 00 00
       0.0 0.0

exp_avg_sq f4 [1, 10]
000000 00 00 00 00 00 00 00 00 00 00 00 00 00 00 00 00
       0.0 0.0 0.0 0.0
000010 00 00 00 00 c8 1b 15 1e fd 05 3c 23 50 e3 8e 1c
       0.0 7.893739e-21 1.01927685e-17 9.455531e-22
000020 2e d8 8b 2c a1 d6 88 1f
       3.9746184e-12 5.7953314e-20
