lightning_logs/version_32/checkpoints/epoch=3-step=26664.ckpt (torch, 5387 bytes, 6 tensors)

model.sequential.0.weight f4 [10, 3]
0.417894 -0.54510355 0.128981 -0.3781845 -0.22932091 0.10223073 -0.22700259 -0.09135005
-0.54722667 -0.5443681 0.2236442 -0.24437994 -0.3512539 -0.22781217 -0.4720234 -0.4615339
0.34547043 0.29343373 0.07690507 -0.31538314 0.19208497 0.025937557 -0.41261652 0.12423992
0.5257027 -0.5678854 -0.5741126 0.07439256 0.43501306 -0.3513114
00000000: 34f6 d53e e88b 0bbf 9813 043e 66a1 c1be
00000010: 1ad3 6abe 585e d13d 5e73 68be bc15 bbbd
00000020: 0c17 0cbf b55b 0bbf fc02 653e bc3e 7abe
00000030: 8dd7 b3be 9847 69be 0dad f1be 2c4e ecbe
00000040: 80e1 b03e f23c 963e 6880 9d3d e679 a1be
00000050: ecb1 443e 007b d43c 7942 d3be 8071 fe3d
00000060: 7494 063f f060 11bf 0bf9 12bf 205b 983d
00000070: 08ba de3e 16df b3be

model.sequential.0.bias f4 [10]
0.12709624 0.4058687 0.17800653 0.124944806 0.5760373 0.3761279 -0.3247174 0.049904168
0.29495227 0.509171
00000000: 8425 023e 06ce cf3e 5847 363e 10e3 ff3d
00000010: 2e77 133f d693 c03e 5c41 a6be 5068 4c3d
00000020: fc03 973e 0859 023f

model.sequential.3.weight f4 [1, 10]
-0.3146254 0.17123902 -0.09181099 -0.30965695 0.070194334 -0.17215872 0.044813335 -0.2053099
-0.23797056 -0.031876985
00000000: 9516 a1be 4859 2f3e 6607 bcbd 5b8b 9ebe
00000010: 0cc2 8f3d 604a 30be 308e 373d c23c 52be
00000020: 8eae 73be 7191 02bd

square_avg f4 [10, 3]
0.0 0.0 0.0 0.0 0.0 0.0 0.0 0.0
0.0 0.0 0.0 0.0 0.0 0.0 0.0 0.0
0.0 0.0 0.0 0.0 0.0 0.0 0.0 0.0
0.0 0.0 0.0 0.0 0.0 0.0
00000000: 0000 0000 0000 0000 0000 0000 0000 0000
00000010: 0000 0000 0000 0000 0000 0000 0000 0000
00000020: 0000 0000 0000 0000 0000 0000 0000 0000
00000030: 0000 0000 0000 0000 0000 0000 0000 0000
00000040: 0000 0000 0000 0000 0000 0000 0000 0000
00000050: 0000 0000 0000 0000 0000 0000 0000 0000
00000060: 0000 0000 0000 0000 0000 0000 0000 0000
00000070: 0000 0000 0000 0000

square_avg f4 [10]
0.0 0.0 0.0 0.0 0.0 0.0 0.0 0.0
0.0 0.0
00000000: 0000 0000 0000 0000 0000 0000 0000 0000
00000010: 0000 0000 0000 0000 0000 0000 0000 0000
00000020: 0000 0000 0000 0000

square_avg f4 [1, 10]
0.0 0.0 0.0 0.0 0.0 0.0 0.0 0.0
0.0 0.0
00000000: 0000 0000 0000 0000 0000 0000 0000 0000
00000010: 0000 0000 0000 0000 0000 0000 0000 0000
00000020: 0000 0000 0000 0000
