lightning_logs/version_47/checkpoints/epoch=199-step=13400.ckpt (torch, 4059 bytes, 2 tensors)

model.linear.weight f4 [1, 15]
-0.03056579 0.10054061 0.14312236 -0.004842783 0.11922512 0.019049289 0.038678702 0.08425802
0.09675997 -0.029726494 0.03811283 -0.79248816 0.09517218 0.5098051 0.5134381
00000000: 1c65 fabc 3ce8 cd3d ab8e 123e 35b0 9ebb
00000010: 4d2c f43d 410d 9c3c 8f6d 1e3d 788f ac3d
00000020: 172a c63d fa84 f3bc 331c 1c3d 81e0 4abf
00000030: a2e9 c23d 9682 023f ae70 033f

square_avg f4 [1, 15]
0.032498002 0.031718727 0.031972785 0.029778413 0.028630687 0.03172454 0.03354344 0.030597813
0.03107809 0.03213842 0.026410377 0.030545052 0.028790066 0.036345106 0.029522646
00000000: a01c 053d 7feb 013d e5f5 023d dcf1 f33c
00000010: e78a ea3c 97f1 013d d964 093d 44a8 fa3c
00000020: 7b97 fe3c 93a3 033d 935a d83c 9e39 fa3c
00000030: 25d9 eb3c 9bde 143d 7ad9 f13c
